data.pth (torch, 5823 bytes, 6 tensors)

l1.weight f4 [8, 73]
-0.17022042 0.4531743 0.76563877 0.20828132 0.36716056 0.26758197 -0.37598738 -0.2454697
0.55176646 -0.093194366 0.31578776 0.71812344 0.301377 0.51607996 0.1627409 0.15998095
-0.23350596 0.07597861 0.3806295 0.12245911 -0.032182783 0.34855273 -0.10356272 0.34722424
-0.20748499 0.68526 0.3910705 0.759305 -0.40558115 -0.38104823 -0.49236882 -0.36827815
-0.38125682 0.13842276 0.7074069 0.3013605 0.44184625 0.1918875 0.43468198 0.6034915
-0.23277071 0.25709906 0.26897788 0.27976453 0.784351 0.12770237 0.34420708 0.010085445
0.17133321 0.6393325 -0.07905293 0.45117405 -0.10754619 0.21725549 0.15362601 0.5104825
0.5595137 0.5636075 0.22839348 0.46199334 0.23742568 -0.732166 -0.12358946 0.2399689
-0.5266995 0.5242393 0.19363837 0.678161 0.2748662 0.39712206 -0.18722957 0.17130528
0.8148519 0.47325563 0.327035 -0.1262507 0.27113387 0.17302865 -0.43941 0.075891055
0.051863473 0.4952343 0.03163826 -0.107311614 0.09275617 0.17915966 0.616508 -0.045168974
0.19400132 -0.008586213 0.0977416 -0.28963625 0.25793535 -0.030732669 0.6382568 -0.31395084
0.06539062 -0.04247832 0.44435126 0.18295793 -0.07855899 -0.13683192 0.5264202 0.046883676
-0.07783352 -0.23525631 0.09940491 0.20667551 0.29652333 0.1903017 -0.08172743 0.33297503
0.19489434 0.4342404 -0.24652429 0.05604415 -0.03916156 -0.32990447 0.37713397 0.10578752
-0.322869 0.13295348 -0.034432728 -0.056658857 -0.107032835 -0.034885954 0.107010216 0.25277272
0.3722489 -0.26503944 0.2185943 0.12066972 -0.17765702 0.25515303 1.053609 0.6018785
0.39257005 0.07142399 0.24331675 0.14961752 0.6609228 0.27024865 -0.31126478 -0.24795686
0.34372658 -0.34053984 0.42276263 0.18404046 0.10841077 -0.29984114 0.0041754288 -0.13832219
-0.25393096 0.39195693 -0.07834092 -0.11852719 0.47218287 0.285854 -0.06307641 0.9289223
0.49502105 -0.034523375 -0.33935353 -0.037679497 -0.07894448 -0.2633116 0.3857966 -0.29722708
0.5565574 -0.017728126 -0.23016573 1.0056033 -0.14090842 0.0853392 -0.48691002 0.6260507
-0.43751362 -0.6010348 -0.59877044 0.35492778 0.10348508 -0.20572348 -0.30721974 0.1317773
0.6882485 0.11950327 0.31816864 0.21232475 0.31596476 0.57305574 0.10556503 -0.2699589
-0.082574695 0.64776 0.010311119 0.09310791 0.42710024 -0.046478428 0.4065758 0.012492831
-0.0032801908 0.6947238 -0.034868598 -0.01370877 -0.19457471 -0.083695486 -0.14577709 0.6899353
0.4731425 -0.15005232 0.274583 0.5144493 -0.0032020938 -0.45348442 -0.16560826 0.46729
0.6875536 0.36010185 0.13263865 0.020295382 0.09215041 -0.33093435 -0.0720444 -0.061368182
0.6304131 0.2641433 0.31848615 -0.14693238 0.5730241 0.3014736 -0.4878329 -0.22135799
-0.53923684 0.5197433 -0.03331943 0.57495284 -0.0643162 0.6328649 -0.13537505 0.2682513
-0.1777951 0.58271563 -0.14376445 0.5193937 -0.5820409 -0.09005387 0.22262162 0.7155357
0.054224875 0.88842106 0.70180726 0.5962319 0.36720568 0.04787654 -0.26925707 0.6733277
00000000: 434e 2ebe 7606 e83e e700 443f b347 553e
00000010: 78fc bb3e 8100 893e 6b81 c0be 695c 7bbe
00000020: 9140 0d3f b0dc bebd efae a13e f0d6 373f
00000030: 164e 9a3e d11d 043f 8da5 263e 0cd2 233e
00000040: 301c 6fbe ac9a 9b3d dfe1 c23e d8cb fa3d
00000050: 18d2 03bd 8175 b23e b118 d4bd 60c7 b13e
00000060: f276 54be 336d 2f3f 643a c83e d061 423f
00000070: 55a8 cfbe c118 c3be c417 fcbe f48e bcbe
00000080: 1834 c3be b2be 0d3e 9e18 353f ec4b 9a3e
00000090: ac39 e23e 287e 443e a38e de3e 6b7e 1a3f
000000a0: 725b 6ebe 7da2 833e 78b7 893e 4c3d 8f3e
000000b0: 3acb 483f 69c4 023e e93b b03e 6c3d 253c
000000c0: f971 2f3e 4bab 233f 81e6 a1bd 4900 e73e
000000d0: 2d41 dcbd 3978 5e3e 2350 1d3e fbae 023f
000000e0: 4a3c 0f3f 9548 103f fbdf 693e 648a ec3e
000000f0: b81f 733e 3b6f 3bbf 791c fdbd 68ba 753e
00000100: c7d5 06bf 8c34 063f 2349 463e f69b 2d3f
00000110: 43bb 8c3e 9553 cb3e 1cb9 3fbe a76a 2f3e
00000120: 229a 503f 904e f23e 2271 a73e dd47 01be
00000130: 0fd2 8a3e 6c2e 313e 59fa e0be c56c 9b3d
00000140: cb6e 543d 5a8f fd3e 1f97 013d 31c6 dbbd
00000150: f2f6 bd3d a175 373e 78d3 1d3f 1a03 39bd
00000160: 48a8 463e 30ad 0cbc bf2c c83d 344b 94be
00000170: 1a10 843e 14c3 fbbc cc64 233f 2abe a0be
00000180: 84eb 853d bffd 2dbd 0282 e33e 5359 3b3e
00000190: 89e3 a0bd ab1d 0cbe 79c3 063f 1909 403d
000001a0: 2e67 9fbd 08e7 70be cd94 cb3d bfa2 533e
000001b0: e8d1 973e 73de 423e b660 a7bd b47b aa3e
000001c0: 6292 473e c254 de3e dd70 7cbe 8d8e 653d
000001d0: df67 20bd 3de9 a8be b417 c13e 21a7 d83d
000001e0: 164f a5be f524 083e 5509 0dbd 1e13 68bd
000001f0: 0834 dbbd 93e4 0ebd 2c28 db3d 6d6b 813e
00000200: 6897 be3e 40b3 87be 2fd7 5f3e b021 f73d
00000210: b9eb 35be 6ba3 823e a9dc 863f b614 1a3f
00000220: f1fe c83e be46 923d 0728 793e 5635 193e
00000230: 3d32 293f 085e 8a3e 195e 9fbe 67e8 7dbe
00000240: eefc af3e 3d5b aebe 5874 d83e 1a75 3c3e
00000250: 7706 de3d c784 99be 09d2 883b 55a4 0dbe
00000260: 3d03 82be 94ae c83e 3471 a0bd 62be f2bd
00000270: f4c1 f13e 755b 923e 342e 81bd dacd 6d3f
00000280: 6673 fd3e 6268 0dbd bfbf adbe d155 1abd
00000290: a5ad a1bd c7d0 86be 2287 c53e 262e 98be
000002a0: 8c7a 0e3f 933a 91bc 91b0 6bbe 9cb7 803f
000002b0: 4c4a 10be 52c6 ae3d 454c f9be dc44 203f
000002c0: c901 e0be 6bdd 19bf 0549 19bf 18b9 b53e
000002d0: fcef d33d 2da9 52be e84b 9dbe a1f0 063e
000002e0: 0e31 303f 21be f43d 00e7 a23e a96b 593e
000002f0: 22c6 a13e c8b3 123f 7a32 d83d 0e38 8abe
00000300: ec1c a9bd 99d3 253f f8ef 283c 5caf be3d
00000310: e2ac da3e 2a60 3ebd b42a d03e bbae 4c3c
00000320: 78f8 56bb 6bd9 313f 60d2 0ebd c09a 60bc
00000330: 983e 47be 8a68 abbd 9746 15be 9a9f 303f
00000340: bc3f f23e 51a7 19be 2596 8c3e f3b2 033f
00000350: 38da 51bb 1c2f e8be 3695 29be a340 ef3e
00000360: 8303 303f 455f b83e 6dd2 073e 8042 a63c
00000370: 5bb9 bc3d 3a70 a9be 048c 93bd 345d 7bbd
00000380: c162 213f ca3d 873e 9e10 a33e 7175 16be
00000390: b5b1 123f bf5a 9a3e 3cc5 f9be abab 62be
000003a0: 6d0b 0abf e60d 053f f479 08bd 1c30 133f
000003b0: 36b8 83bd 6f03 223f c29f 0abe 3c58 893e
000003c0: eb0f 36be da2c 153f fd36 13be fcf6 043f
000003d0: a200 15bf 2a6e b8bd ecf6 633e 592d 373f
000003e0: e71a 5e3d 906f 633f a4a9 333f a7a2 183f
000003f0: 6202 bc3e 311a 443d 10dc 89be 345f 2c3f

l1.bias f4 [8]
0.68846524 0.7916147 0.63142204 0.6213429 0.7825636 0.8952012 0.4354856 1.0172054
00000000: 423f 303f 43a7 4a3f e0a4 213f 5410 1f3f
00000010: 1756 483f e82b 653f f8f7 de3e c933 823f

l2.weight f4 [8, 8]
-0.6359479 1.0893441 -0.610019 0.8105595 -0.062373236 1.1285558 1.4050775 1.3535302
0.09352094 -0.22414912 -0.33585352 -0.22100656 -0.23067749 -0.19776022 -0.26545838 -0.20572917
-0.5842228 -0.38053352 -0.24919179 0.942872 0.84179354 0.61455137 0.09163949 -0.09293954
0.33271006 0.8933497 -0.21600638 -0.8022667 -0.801953 0.49264783 -0.64067394 0.4424771
1.2253362 -0.54850256 1.0161488 1.0730703 1.2843844 -0.12261858 -0.9991827 0.07237426
1.1230887 0.8341222 0.224744 -0.8485506 0.35851267 0.31071368 -1.2685829 -0.033541184
0.5645715 -0.28788275 -1.0171905 0.43097305 0.44536346 0.7921082 -0.3349937 0.75323766
-0.10714259 1.1599952 0.6001397 -0.16050471 -0.8415944 0.9171098 0.7291821 0.70995355
00000000: 7bcd 22bf a16f 8b3f 352a 1cbf d480 4f3f
00000010: 147b 7fbd 8474 903f 94d9 b33f 7a40 ad3f
00000020: e887 bf3d 5987 65be fef4 abbe 8b4f 62be
00000030: b836 6cbe a881 4abe 29ea 87be abaa 52be
00000040: a08f 15bf 4ad5 c2be 222c 7fbe 0f60 713f
00000050: c87f 573f 3d53 1d3f 7cad bb3d 1657 bebd
00000060: f958 aa3e 91b2 643f c730 5dbe 5a61 4dbf
00000070: cb4c 4dbf 563c fc3e 3503 24bf 5c8c e23e
00000080: d1d7 9c3f aa6a 0cbf 2a11 823f 5e5a 893f
00000090: b566 a43f 731f fbbd 70ca 7fbf f538 943d
000000a0: 5fc1 8f3f 0889 553f 4b23 663e 9d3a 59bf
000000b0: f98e b73e dd15 9f3e ed60 a2bf 7b62 09bd
000000c0: c287 103f 5e65 93be 4c33 82bf 80a8 dc3e
000000d0: ae06 e43e 9ac7 4a3f 4b84 abbe 2fd4 403f
000000e0: 936d dbbd b97a 943f c1a2 193f 595b 24be
000000f0: bb72 57bf b5c7 6a3f aeab 3a3f 84bf 353f

l2.bias f4 [8]
0.6560805 -0.1789765 -0.033530656 0.25009552 0.6559487 0.39780346 -0.12252952 0.32707644
00000000: e4f4 273f 9e45 37be 7157 09bd 850c 803e
00000010: 41ec 273f e5ac cb3e c2f0 fabd 9076 a73e

l3.weight f4 [7, 8]
-0.23896782 -0.13858077 -0.6770737 0.3561646 0.16128692 0.64028466 -1.7277526 0.19854444
0.41753897 -0.010028839 0.8823544 -1.1999524 -0.58100337 -0.90290916 0.6987778 -0.13493091
-0.89620465 0.32164946 0.7352215 -0.67840093 0.5624705 -0.578606 -0.9232833 -0.83689004
-0.15594704 -0.11960353 0.0142890215 -0.51734453 0.34508124 -0.5831439 0.9377244 -1.6904075
-0.9364538 0.31679937 -1.3801335 -1.3150012 0.31874123 0.8605164 0.3903675 -1.5285093
0.52064836 0.2759017 -0.8841682 -0.36359945 -1.3020843 -0.71556675 -0.6497709 0.5765687
-0.0453687 -0.31080985 -1.2609986 0.6218456 -1.0772144 0.1669868 0.7516888 0.0073371027
00000000: fbb3 74be 1ee8 0dbe b454 2dbf 355b b63e
00000010: 6628 253e b2e9 233f ff26 ddbf 3c4f 4b3e
00000020: abc7 d53e 0050 24bc fae1 613f 0a98 99bf
00000030: a3bc 14bf 0e25 67bf 1ae3 323f 542b 0abe
00000040: ab6d 65bf 3daf a43e 7a37 3c3f afab 2dbf
00000050: 11fe 0f3f 861f 14bf 4b5c 6cbf 6d3e 56bf
00000060: 95b0 1fbe b2f2 f4bd 801c 6a3c b170 04bf
00000070: 7dae b03e eb48 15bf b50e 703f 465f d8bf
00000080: 70bb 6fbf 8733 a23e 37a8 b0bf f651 a8bf
00000090: 0d32 a33e ce4a 5c3f 40de c73e 31a6 c3bf
000000a0: 3649 053f fd42 8d3e d958 62bf b529 babe
000000b0: b3aa a6bf 622f 37bf 6357 26bf 029a 133f
000000c0: 88d4 39bd 7822 9fbe 6768 a1bf 4631 1f3f
000000d0: 29e2 89bf 96fe 2a3e ad6e 403f 146c f03b

l3.bias f4 [7]
-0.058414437 0.3841371 0.085155725 0.2695867 0.3183503 0.23038617 -0.33978447
00000000: fa43 6fbd 9ead c43e 2066 ae3d 4507 8a3e
00000010: cffe a23e 5aea 6b3e 3bf8 adbe
